Model: "sequential"
_________________________________________________________________
 Layer (type)                Output Shape              Param #   
=================================================================
 hypersphere_projection_lay  (None, 10)                0         
 er (HypersphereProjectionL                                      
 ayer)                                                           
                                                                 
 dense (Dense)               (None, 128)               1280      
                                                                 
 concrete_dense_dropout (Co  (None, 128)               16385     
 ncreteDenseDropout)                                             
                                                                 
 concrete_dense_dropout_1 (  (None, 128)               16385     
 ConcreteDenseDropout)                                           
                                                                 
 concrete_dense_dropout_2 (  (None, 128)               16385     
 ConcreteDenseDropout)                                           
                                                                 
 concrete_dense_dropout_3 (  (None, 128)               16385     
 ConcreteDenseDropout)                                           
                                                                 
 concrete_dense_dropout_4 (  (None, 1)                 129       
 ConcreteDenseDropout)                                           
                                                                 
=================================================================
Total params: 66949 (261.52 KB)
Trainable params: 66949 (261.52 KB)
Non-trainable params: 0 (0.00 Byte)
_________________________________________________________________
{'learning_rate': 0.001, 'hop_dist': 0.8047567571167001, 'rand_fraction': 0.0, 'idx': 0, 'l_constant': 0.1}
…
